myNotebooks/net.pkl (torch_old, 1862 bytes, 3 tensors)

weight f4 [10, 1]
0	0x3e103cb8	0.14085662
1	0xbf4b78a5	-0.79480964
2	0xbdd24660	-0.10267329
3	0xbf1440d2	-0.5791141
4	0xbe0dd100	-0.13849258
5	0xbf3a0bfb	-0.7267453
6	0xbf503ffb	-0.81347626
7	0xbf1f515a	-0.6223351
8	0x3f66b5ce	0.9012116
9	0x3f40d99d	0.7533205

bias f4 [10]
0	0xbf56e17c	-0.8393781
1	0xbe1682e9	-0.14698376
2	0xbf406ad2	-0.75162995
3	0xbe0ded5c	-0.13860077
4	0xbf19bdc2	-0.6005517
5	0xbec95eb6	-0.3933007
6	0xbeadaeac	-0.33922327
7	0xbdb3df9e	-0.08782886
8	0xbe5d866b	-0.21633308
9	0xbe4ce25e	-0.20008227

weight f4 [1, 10]
0	0x3e8ade71	0.27122834
1	0x3ed5fb7c	0.4179343
2	0x3e5f7caa	0.218249
3	0x3ed7d24d	0.42152634
4	0xbe832dca	-0.25620872
5	0x3e682082	0.22668651
6	0x3e9c1033	0.3048111
7	0x3ec28524	0.37992203
8	0x3f3dcab0	0.741374
9	0x3f3413e0	0.70342827
